…
Console output is saving to: /Users/davis/PycharmProjects/LmForGuiGeneration/gui2lm/gui2lm/console_output/lm_output
/Users/davis/PycharmProjects/LmForGuiGeneration/venv/lib/python3.8/site-packages/h5py/__init__.py:36: UserWarning: h5py is running against HDF5 1.12.2 when it was built against 1.12.1, this may cause problems
  _warn(("h5py is running against HDF5 {0} when it was built against {1}, "
Enter Folder/Model Name: V3_Run1
Model: "sequential"
_________________________________________________________________
 Layer (type)                Output Shape              Param #
=================================================================
 embedding (Embedding)       (None, 87, 8)             152

 dropout (Dropout)           (None, 87, 8)             0

 lstm (LSTM)                 (None, 87, 64)            18688

 dropout_1 (Dropout)         (None, 87, 64)            0

 lstm_1 (LSTM)               (None, 64)                33024

 dropout_2 (Dropout)         (None, 64)                0

 dense (Dense)               (None, 19)                1235

=================================================================
Total params: 53,099
Trainable params: 53,099
Non-trainable params: 0
_________________________________________________________________
None
Nr. Training Sampels: 1727902
Training Data Prepared
Nr. Validation Sampels: 371182
Validation Data Prepared

Search: Running Trial #1

Value             |Best Value So Far |Hyperparameter
8                 |?                 |embedding_dim
128               |?                 |num_of_neurons
1                 |?                 |num_of_layers
0.0001            |?                 |learning_rate
2                 |?                 |tuner/epochs
0                 |?                 |tuner/initial_epoch
2                 |?                 |tuner/bracket
0                 |?                 |tuner/round

Model: "sequential"
_________________________________________________________________
 Layer (type)                Output Shape              Param #
=================================================================
 embedding (Embedding)       (None, 87, 8)             152

 dropout (Dropout)           (None, 87, 8)             0

 lstm (LSTM)                 (None, 87, 128)           70144

 dropout_1 (Dropout)         (None, 87, 128)           0

 lstm_1 (LSTM)               (None, 128)               131584

 dropout_2 (Dropout)         (None, 128)               0

 dense (Dense)               (None, 19)                2451

=================================================================
Total params: 204,331
Trainable params: 204,331
Non-trainable params: 0
_________________________________________________________________
None
2022-06-02 14:36:58.189542: W tensorflow/core/platform/profile_utils/cpu_utils.cc:128] Failed to get CPU frequency: 0 Hz
Epoch 1/2
13500/13500 [==============================] - 3769s 279ms/step - loss: 1.1118 - accuracy: 0.6134 - perplexity: 3.4846 - val_loss: 0.6021 - val_accuracy: 0.7709 - val_perplexity: 1.8369
…
64                |128               |num_of_neurons
2                 |1                 |num_of_layers
0.01              |0.0001            |learning_rate
2                 |2                 |tuner/epochs
0                 |0                 |tuner/initial_epoch
2                 |2                 |tuner/bracket
0                 |0                 |tuner/round

Model: "sequential"
_________________________________________________________________
 Layer (type)                Output Shape              Param #
=================================================================
 embedding (Embedding)       (None, 87, 32)            608

 dropout (Dropout)           (None, 87, 32)            0

 lstm (LSTM)                 (None, 87, 64)            24832

 dropout_1 (Dropout)         (None, 87, 64)            0

 lstm_1 (LSTM)               (None, 87, 64)            33024

 dropout_2 (Dropout)         (None, 87, 64)            0

 lstm_2 (LSTM)               (None, 64)                33024

 dropout_3 (Dropout)         (None, 64)                0

 dense (Dense)               (None, 19)                1235

=================================================================
Total params: 92,723
Trainable params: 92,723
Non-trainable params: 0
_________________________________________________________________
None
Epoch 1/2
13500/13500 [==============================] - 2791s 206ms/step - loss: 0.5952 - accuracy: 0.7755 - perplexity: 1.8354 - val_loss: 0.5439 - val_accuracy: 0.7923 - val_perplexity: 1.7337
…
128               |64                |num_of_neurons
2                 |2                 |num_of_layers
0.001             |0.01              |learning_rate
2                 |2                 |tuner/epochs
0                 |0                 |tuner/initial_epoch
2                 |2                 |tuner/bracket
0                 |0                 |tuner/round

Model: "sequential"
_________________________________________________________________
 Layer (type)                Output Shape              Param #
=================================================================
 embedding (Embedding)       (None, 87, 32)            608

 dropout (Dropout)           (None, 87, 32)            0

 lstm (LSTM)                 (None, 87, 128)           82432

 dropout_1 (Dropout)         (None, 87, 128)           0

 lstm_1 (LSTM)               (None, 87, 128)           131584

 dropout_2 (Dropout)         (None, 87, 128)           0

 lstm_2 (LSTM)               (None, 128)               131584

 dropout_3 (Dropout)         (None, 128)               0

 dense (Dense)               (None, 19)                2451

=================================================================
Total params: 348,659
Trainable params: 348,659
Non-trainable params: 0
_________________________________________________________________
None
Epoch 1/2
13500/13500 [==============================] - 19019s 1s/step - loss: 0.5876 - accuracy: 0.7769 - perplexity: 1.8623 - val_loss: 0.5140 - val_accuracy: 0.8012 - val_perplexity: 1.6804
…
64                |128               |num_of_neurons
1                 |2                 |num_of_layers
0.001             |0.001             |learning_rate
2                 |2                 |tuner/epochs
0                 |0                 |tuner/initial_epoch
2                 |2                 |tuner/bracket
0                 |0                 |tuner/round

Model: "sequential"
_________________________________________________________________
 Layer (type)                Output Shape              Param #
=================================================================
 embedding (Embedding)       (None, 87, 32)            608

 dropout (Dropout)           (None, 87, 32)            0

 lstm (LSTM)                 (None, 87, 64)            24832

 dropout_1 (Dropout)         (None, 87, 64)            0

 lstm_1 (LSTM)               (None, 64)                33024

 dropout_2 (Dropout)         (None, 64)                0

 dense (Dense)               (None, 19)                1235

=================================================================
Total params: 59,699
Trainable params: 59,699
Non-trainable params: 0
_________________________________________________________________
None
Epoch 1/2
13500/13500 [==============================] - 1827s 135ms/step - loss: 0.6187 - accuracy: 0.7665 - perplexity: 1.9246 - val_loss: 0.5267 - val_accuracy: 0.7960 - val_perplexity: 1.7019
…
64                |128               |num_of_neurons
2                 |2                 |num_of_layers
0.001             |0.001             |learning_rate
2                 |2                 |tuner/epochs
0                 |0                 |tuner/initial_epoch
2                 |2                 |tuner/bracket
0                 |0                 |tuner/round

Model: "sequential"
_________________________________________________________________
 Layer (type)                Output Shape              Param #
=================================================================
 embedding (Embedding)       (None, 87, 8)             152

 dropout (Dropout)           (None, 87, 8)             0

 lstm (LSTM)                 (None, 87, 64)            18688

 dropout_1 (Dropout)         (None, 87, 64)            0

 lstm_1 (LSTM)               (None, 87, 64)            33024

 dropout_2 (Dropout)         (None, 87, 64)            0

 lstm_2 (LSTM)               (None, 64)                33024

 dropout_3 (Dropout)         (None, 64)                0

 dense (Dense)               (None, 19)                1235

=================================================================
Total params: 86,123
Trainable params: 86,123
Non-trainable params: 0
_________________________________________________________________
None
Epoch 1/2
13500/13500 [==============================] - 2679s 198ms/step - loss: 0.6549 - accuracy: 0.7557 - perplexity: 2.0368 - val_loss: 0.5299 - val_accuracy: 0.7943 - val_perplexity: 1.7075
…
64                |128               |num_of_neurons
1                 |2                 |num_of_layers
0.01              |0.001             |learning_rate
2                 |2                 |tuner/epochs
0                 |0                 |tuner/initial_epoch
2                 |2                 |tuner/bracket
0                 |0                 |tuner/round

Model: "sequential"
_________________________________________________________________
 Layer (type)                Output Shape              Param #
=================================================================
 embedding (Embedding)       (None, 87, 64)            1216

 dropout (Dropout)           (None, 87, 64)            0

 lstm (LSTM)                 (None, 87, 64)            33024

 dropout_1 (Dropout)         (None, 87, 64)            0

 lstm_1 (LSTM)               (None, 64)                33024

 dropout_2 (Dropout)         (None, 64)                0

 dense (Dense)               (None, 19)                1235

=================================================================
Total params: 68,499
Trainable params: 68,499
Non-trainable params: 0
_________________________________________________________________
None
Epoch 1/2
13500/13500 [==============================] - 2017s 149ms/step - loss: 0.5767 - accuracy: 0.7812 - perplexity: 1.7966 - val_loss: 0.5505 - val_accuracy: 0.7959 - val_perplexity: 1.7487
…
128               |128               |num_of_neurons
1                 |2                 |num_of_layers
0.01              |0.001             |learning_rate
2                 |2                 |tuner/epochs
0                 |0                 |tuner/initial_epoch
2                 |2                 |tuner/bracket
0                 |0                 |tuner/round

Model: "sequential"
_________________________________________________________________
 Layer (type)                Output Shape              Param #
=================================================================
 embedding (Embedding)       (None, 87, 32)            608

 dropout (Dropout)           (None, 87, 32)            0

 lstm (LSTM)                 (None, 87, 128)           82432

 dropout_1 (Dropout)         (None, 87, 128)           0

 lstm_1 (LSTM)               (None, 128)               131584

 dropout_2 (Dropout)         (None, 128)               0

 dense (Dense)               (None, 19)                2451

=================================================================
Total params: 217,075
Trainable params: 217,075
Non-trainable params: 0
_________________________________________________________________
None
Epoch 1/2
13500/13500 [==============================] - 4051s 300ms/step - loss: 0.5786 - accuracy: 0.7820 - perplexity: 1.8123 - val_loss: 0.6089 - val_accuracy: 0.7929 - val_perplexity: 1.8616
…
128               |128               |num_of_neurons
2                 |2                 |num_of_layers
0.01              |0.001             |learning_rate
2                 |2                 |tuner/epochs
0                 |0                 |tuner/initial_epoch
2                 |2                 |tuner/bracket
0                 |0                 |tuner/round

Model: "sequential"
_________________________________________________________________
 Layer (type)                Output Shape              Param #
=================================================================
 embedding (Embedding)       (None, 87, 64)            1216

 dropout (Dropout)           (None, 87, 64)            0

 lstm (LSTM)                 (None, 87, 128)           98816

 dropout_1 (Dropout)         (None, 87, 128)           0

 lstm_1 (LSTM)               (None, 87, 128)           131584

 dropout_2 (Dropout)         (None, 87, 128)           0

 lstm_2 (LSTM)               (None, 128)               131584

 dropout_3 (Dropout)         (None, 128)               0

 dense (Dense)               (None, 19)                2451

=================================================================
Total params: 365,651
Trainable params: 365,651
Non-trainable params: 0
_________________________________________________________________
None
Epoch 1/2
13500/13500 [==============================] - 6315s 467ms/step - loss: 0.5903 - accuracy: 0.7784 - perplexity: 1.8727 - val_loss: 0.5433 - val_accuracy: 0.7930 - val_perplexity: 1.7340
…
64                |128               |num_of_neurons
2                 |2                 |num_of_layers
0.001             |0.001             |learning_rate
2                 |2                 |tuner/epochs
0                 |0                 |tuner/initial_epoch
2                 |2                 |tuner/bracket
0                 |0                 |tuner/round

Model: "sequential"
_________________________________________________________________
 Layer (type)                Output Shape              Param #
=================================================================
 embedding (Embedding)       (None, 87, 64)            1216

 dropout (Dropout)           (None, 87, 64)            0

 lstm (LSTM)                 (None, 87, 64)            33024

 dropout_1 (Dropout)         (None, 87, 64)            0

 lstm_1 (LSTM)               (None, 87, 64)            33024

 dropout_2 (Dropout)         (None, 87, 64)            0

 lstm_2 (LSTM)               (None, 64)                33024

 dropout_3 (Dropout)         (None, 64)                0

 dense (Dense)               (None, 19)                1235

=================================================================
Total params: 101,523
Trainable params: 101,523
Non-trainable params: 0
_________________________________________________________________
None
Epoch 1/2
13500/13500 [==============================] - 2937s 217ms/step - loss: 0.6196 - accuracy: 0.7657 - perplexity: 1.9166 - val_loss: 0.5273 - val_accuracy: 0.7951 - val_perplexity: 1.7031
…
128               |128               |num_of_neurons
1                 |1                 |num_of_layers
0.01              |0.001             |learning_rate
10                |4                 |tuner/epochs
0                 |0                 |tuner/initial_epoch
0                 |1                 |tuner/bracket
0                 |0                 |tuner/round

Model: "sequential"
_________________________________________________________________
 Layer (type)                Output Shape              Param #
=================================================================
 embedding (Embedding)       (None, 87, 64)            1216

 dropout (Dropout)           (None, 87, 64)            0

 lstm (LSTM)                 (None, 87, 128)           98816

 dropout_1 (Dropout)         (None, 87, 128)           0

 lstm_1 (LSTM)               (None, 128)               131584

 dropout_2 (Dropout)         (None, 128)               0

 dense (Dense)               (None, 19)                2451

=================================================================
Total params: 234,067
Trainable params: 234,067
Non-trainable params: 0
_________________________________________________________________
None
Epoch 1/10
13500/13500 [==============================] - 4240s 314ms/step - loss: 0.5767 - accuracy: 0.7820 - perplexity: 1.7963 - val_loss: 0.5422 - val_accuracy: 0.7926 - val_perplexity: 1.7300
…
128               |128               |num_of_neurons
2                 |1                 |num_of_layers
0.0001            |0.001             |learning_rate
10                |4                 |tuner/epochs
0                 |0                 |tuner/initial_epoch
0                 |1                 |tuner/bracket
0                 |0                 |tuner/round

Model: "sequential"
_________________________________________________________________
 Layer (type)                Output Shape              Param #
=================================================================
 embedding (Embedding)       (None, 87, 8)             152

 dropout (Dropout)           (None, 87, 8)             0

 lstm (LSTM)                 (None, 87, 128)           70144

 dropout_1 (Dropout)         (None, 87, 128)           0

 lstm_1 (LSTM)               (None, 87, 128)           131584

 dropout_2 (Dropout)         (None, 87, 128)           0

 lstm_2 (LSTM)               (None, 128)               131584

 dropout_3 (Dropout)         (None, 128)               0

 dense (Dense)               (None, 19)                2451

=================================================================
Total params: 335,915
Trainable params: 335,915
Non-trainable params: 0
_________________________________________________________________
None
Epoch 1/10
13500/13500 [==============================] - 5946s 440ms/step - loss: 1.1808 - accuracy: 0.5933 - perplexity: 3.7819 - val_loss: 0.5939 - val_accuracy: 0.7715 - val_perplexity: 1.8214
…
