…
  _warn(("h5py is running against HDF5 {0} when it was built against {1}, "
Enter Folder/Model Name: Directory  /Users/davis/PycharmProjects/LmForGuiGeneration/gui2lm/gui2lm/language_model/text_generations/V1_Test11  already exists
Directory  /Users/davis/PycharmProjects/LmForGuiGeneration/gui2lm/gui2lm/language_model/text_generations/V1_Test11/forced/  already exists
Model: "sequential"
_________________________________________________________________
 Layer (type)                Output Shape              Param #
=================================================================
 embedding (Embedding)       (None, 87, 32)            608

 dropout (Dropout)           (None, 87, 32)            0

 lstm (LSTM)                 (None, 5)                 760

 dropout_1 (Dropout)         (None, 5)                 0

 dense (Dense)               (None, 19)                114

=================================================================
Total params: 1,482
Trainable params: 1,482
Non-trainable params: 0
_________________________________________________________________
None

...Diversity: 0.2
...Forced teaching with Sentence: "< 0 6&B 0 | 0 1&2&B 0 | 0 1 0 | 1 4&5 4 >"
2022-06-02 10:49:50.482893: W tensorflow/core/platform/profile_utils/cpu_utils.cc:128] Failed to get CPU frequency: 0 Hz
…
