/Users/davis/PycharmProjects/LmForGuiGeneration/venv/lib/python3.8/site-packages/h5py/__init__.py:36: UserWarning: h5py is running against HDF5 1.12.2 when it was built against 1.12.1, this may cause problems
  _warn(("h5py is running against HDF5 {0} when it was built against {1}, "
Enter Folder/Model Name: This is a TEST run
Model: "sequential"
_________________________________________________________________
 Layer (type)                Output Shape              Param #
=================================================================
 embedding (Embedding)       (None, 87, 8)             152

 dropout (Dropout)           (None, 87, 8)             0

 lstm (LSTM)                 (None, 2)                 88

 dropout_1 (Dropout)         (None, 2)                 0

 dense (Dense)               (None, 19)                57

=================================================================
Total params: 297
Trainable params: 297
Non-trainable params: 0
_________________________________________________________________
None
Nr. Training Sampels: 18902
Training Data Prepared
Nr. Validation Sampels: 3572
Validation Data Prepared

Search: Running Trial #1

Value             |Best Value So Far |Hyperparameter
8                 |?                 |embedding_dim
…
2                 |2                 |num_of_neurons
0                 |0                 |num_of_layers
0.01              |0.01              |learning_rate
2                 |2                 |tuner/epochs
0                 |0                 |tuner/initial_epoch
0                 |0                 |tuner/bracket
0                 |0                 |tuner/round

Model: "sequential"
_________________________________________________________________
 Layer (type)                Output Shape              Param #
=================================================================
 embedding (Embedding)       (None, 87, 32)            608

 dropout (Dropout)           (None, 87, 32)            0

 lstm (LSTM)                 (None, 2)                 280

 dropout_1 (Dropout)         (None, 2)                 0

 dense (Dense)               (None, 19)                57

=================================================================
Total params: 945
Trainable params: 945
Non-trainable params: 0
_________________________________________________________________
None
Epoch 1/2

148/148 [==============================] - 8s 32ms/step - loss: 8.9188 - accuracy: 0.5007 - val_loss: 6.1093 - val_accuracy: 0.5498
Epoch 2/2

148/148 [==============================] - 4s 29ms/step - loss: 6.2515 - accuracy: 0.5472 - val_loss: 5.5363 - val_accuracy: 0.5498


Trial 2 Complete [00h 00m 12s]
val_loss: 5.536348342895508

Best val_loss So Far: 5.536348342895508
Total elapsed time: 00h 00m 24s

        The hyperparameter search is complete.
        Embedding dimension: 32 .
        Number of neurons: 2
        Number of layers:1
        Learning rate:0.01

Model: "sequential_1"
_________________________________________________________________
 Layer (type)                Output Shape              Param #
=================================================================
 embedding_1 (Embedding)     (None, 87, 32)            608

 dropout_2 (Dropout)         (None, 87, 32)            0

 lstm_1 (LSTM)               (None, 2)                 280

 dropout_3 (Dropout)         (None, 2)                 0

 dense_1 (Dense)             (None, 19)                57

=================================================================
Total params: 945
Trainable params: 945
Non-trainable params: 0
_________________________________________________________________
None
Epoch 1/2

148/148 [==============================] - 9s 35ms/step - loss: 9.0340 - accuracy: 0.4383 - val_loss: 6.7078 - val_accuracy: 0.5498
Epoch 2/2

148/148 [==============================] - 4s 25ms/step - loss: 6.8988 - accuracy: 0.4951 - val_loss: 5.9627 - val_accuracy: 0.5498
Best epoch: 2
Model: "sequential_2"
_________________________________________________________________
 Layer (type)                Output Shape              Param #
=================================================================
 embedding_2 (Embedding)     (None, 87, 32)            608

 dropout_4 (Dropout)         (None, 87, 32)            0

 lstm_2 (LSTM)               (None, 2)                 280

 dropout_5 (Dropout)         (None, 2)                 0

 dense_2 (Dense)             (None, 19)                57

=================================================================
Total params: 945
Trainable params: 945
Non-trainable params: 0
_________________________________________________________________
None
Epoch 1/2

148/148 [==============================] - 9s 31ms/step - loss: 8.6875 - accuracy: 0.4828 - val_loss: 5.9571 - val_accuracy: 0.5770
Epoch 2/2

148/148 [==============================] - 4s 25ms/step - loss: 6.0151 - accuracy: 0.5702 - val_loss: 5.3440 - val_accuracy: 0.5770
