/Users/davis/PycharmProjects/LmForGuiGeneration/venv/lib/python3.8/site-packages/h5py/__init__.py:36: UserWarning: h5py is running against HDF5 1.12.2 when it was built against 1.12.1, this may cause problems
  _warn(("h5py is running against HDF5 {0} when it was built against {1}, "
Enter Folder/Model Name: This is a TEST run
Model: "sequential"
_________________________________________________________________
 Layer (type)                Output Shape              Param #
=================================================================
 embedding (Embedding)       (None, 87, 8)             152

 dropout (Dropout)           (None, 87, 8)             0

 lstm (LSTM)                 (None, 64)                18688

 dropout_1 (Dropout)         (None, 64)                0

 dense (Dense)               (None, 19)                1235

=================================================================
Total params: 20,075
Trainable params: 20,075
Non-trainable params: 0
_________________________________________________________________
None
Nr. Training Sampels: 18902
Training Data Prepared
Nr. Validation Sampels: 3572
Validation Data Prepared

Search: Running Trial #1

Value             |Best Value So Far |Hyperparameter
8                 |?                 |embedding_dim
…
148/148 [==============================] - 11s 74ms/step - loss: 8.9019 - accuracy: 0.4230 - val_loss: 8.1444 - val_accuracy: 0.4351


Trial 2 Complete [00h 00m 26s]
val_loss: 8.144418716430664

Best val_loss So Far: 3.2059481143951416
Total elapsed time: 00h 00m 53s

        The hyperparameter search is complete.
        Embedding dimension: 8 .
        Number of neurons: 64
        Number of layers:1
        Learning rate:0.01

Model: "sequential_1"
_________________________________________________________________
 Layer (type)                Output Shape              Param #
=================================================================
 embedding_1 (Embedding)     (None, 87, 8)             152

 dropout_2 (Dropout)         (None, 87, 8)             0

 lstm_1 (LSTM)               (None, 64)                18688

 dropout_3 (Dropout)         (None, 64)                0

 dense_1 (Dense)             (None, 19)                1235

=================================================================
Total params: 20,075
Trainable params: 20,075
Non-trainable params: 0
_________________________________________________________________
None
Epoch 1/2

148/148 [==============================] - 16s 80ms/step - loss: 6.5354 - accuracy: 0.5626 - val_loss: 3.8235 - val_accuracy: 0.6934
Epoch 2/2

148/148 [==============================] - 11s 74ms/step - loss: 3.7322 - accuracy: 0.6970 - val_loss: 3.3608 - val_accuracy: 0.7074
Best epoch: 2
Model: "sequential_2"
_________________________________________________________________
 Layer (type)                Output Shape              Param #
=================================================================
 embedding_2 (Embedding)     (None, 87, 8)             152

 dropout_4 (Dropout)         (None, 87, 8)             0

 lstm_2 (LSTM)               (None, 64)                18688

 dropout_5 (Dropout)         (None, 64)                0

 dense_2 (Dense)             (None, 19)                1235

=================================================================
Total params: 20,075
Trainable params: 20,075
Non-trainable params: 0
_________________________________________________________________
None
Epoch 1/2

148/148 [==============================] - 16s 80ms/step - loss: 7.2381 - accuracy: 0.5426 - val_loss: 4.5952 - val_accuracy: 0.6761
Epoch 2/2

148/148 [==============================] - 11s 76ms/step - loss: 3.8864 - accuracy: 0.6848 - val_loss: 3.4784 - val_accuracy: 0.6926
…
